Homo Sapiens Dataset: (train bert)
TF: 1578
GENE: 18458
POS_EDGE: 5073515
NEG_EDGE: 18226601
POS / NEG: 0.2783577146391694
Density: 0.21774634083366795
Homo Sapiens Dataset: (test bert)
TF: 1578
GENE: 18458
POS_EDGE: 1269353
NEG_EDGE: 4555677
POS / NEG: 0.27863103551897994
Density: 0.21791355581001298
GRNInfer_Branch(
  (prt_conv): Conv1d(26, 64, kernel_size=(3,), stride=(1,), padding=same)
  (prt_rnn): LSTM(64, 64, num_layers=3, batch_first=True, bidirectional=True)
  (dna_conv_1): Conv1d(69, 64, kernel_size=(3,), stride=(1,), padding=same)
  (dna_conv_2): Conv1d(64, 64, kernel_size=(3,), stride=(1,), padding=same)
  (prt_att_dna): MultiheadAttention(
    (out_proj): NonDynamicallyQuantizableLinear(in_features=64, out_features=64, bias=True)
  )
  (dense_1_EXTRACTION_start): Linear(in_features=384, out_features=32, bias=True)
  (dense_2_EXTRACTION_start): Linear(in_features=32, out_features=16, bias=True)
  (dense_1_EXTRACTION_end): Linear(in_features=384, out_features=32, bias=True)
  (dense_2_EXTRACTION_end): Linear(in_features=32, out_features=16, bias=True)
  (dense_1_MERGE): Linear(in_features=32, out_features=16, bias=True)
  (dense_2_MERGE): Linear(in_features=16, out_features=8, bias=True)
  (dense_3_MERGE): Linear(in_features=8, out_features=1, bias=True)
  (relu): LeakyReLU(negative_slope=0.01)
  (sigmoid): Sigmoid()
)
Trainable parameters: 338945 

Train Epoch: 1 [0/2000 (0%)] Loss: 0.711513
Train Epoch: 1 [143/2000 (7%)] Loss: 0.242867
Train Epoch: 1 [286/2000 (14%)] Loss: 0.234761
Train Epoch: 1 [429/2000 (21%)] Loss: 0.199852
Train Epoch: 1 [572/2000 (29%)] Loss: 0.163047
Train Epoch: 1 [715/2000 (36%)] Loss: 0.162194
…
